STM32_cubeAI-sinewave/sine_model.tflite (tflite, 3152 bytes, 5 tensors)

arith.constant f4 [1, 16]
1.5824155 -0.15462233 0.5843953 0.4982816 -0.40554243 0.15230626 -0.59972996 0.1860125
0.25172997 -0.1907403 0.43489075 0.2165891 1.6569967 -0.2462347 1.5493788 -0.2061967
00000000: 978c ca3f 5155 1ebe ee9a 153f c41e ff3e
00000010: 42a3 cfbe 2cf6 1b3e e787 19bf 107a 3e3e
00000020: c0e2 803e 6d51 43be 00aa de3e 88c9 5d3e
00000030: 7818 d43f f324 7cbe 0b52 c63f 3a25 53be

arith.constant1 f4 [16, 16]
-0.12708095 -0.058160514 0.34354132 0.04984188 0.51298237 0.024217738 -0.017211169 -0.37334082
-0.26292083 0.21817873 -0.30216604 -0.3981037 0.35333905 -0.26671875 0.2773243 -0.41976836
-0.4255309 0.27165428 0.28555632 0.03592515 -0.11754137 -0.33410046 -0.048509896 -0.36593732
-0.2238376 -0.24103591 0.20662633 0.099325866 0.23913494 -0.38142195 0.20282987 -0.2339535
-0.4166424 -0.021375597 -0.05753377 0.3330895 -0.30658048 -0.42642918 0.3923104 -0.3888639
0.23633036 0.04718578 0.009595364 -0.116612375 -0.1851662 0.15897587 0.3870794 0.29009244
0.23768464 0.1406 0.029451052 0.18678579 -0.3625736 0.2227608 -0.35923687 0.4727162
-0.3957567 -0.2528635 -0.12268621 0.09418902 -0.23244148 -0.019435316 -0.020501398 -0.29079992
0.3931916 -0.12654316 -0.38217863 -0.117372006 0.28673473 -0.09025558 0.35363653 0.049875032
-0.05332741 0.42530113 0.12111685 -0.0077857077 -0.15387148 -0.09538287 0.42989546 0.3368244
0.06659889 -0.15685114 -0.42700237 -0.08364281 0.25574824 -0.27594495 -0.14106861 -0.3561421
-0.4006283 -0.26105604 0.2777916 0.07817462 0.34590027 0.29441562 -0.26147127 0.00040841103
-0.39537057 0.04892069 0.18063506 -0.33452845 -0.037632633 0.06547974 0.29468796 0.025870513
0.41923907 -0.1559432 0.3712097 -0.21767831 0.3844587 0.012352556 0.34319922 0.17580041
0.14676961 0.054736316 0.05932837 0.084079534 0.12943117 -0.39610595 -0.2955176 0.29188296
0.27275798 0.2843377 -0.21124914 0.25019225 0.40662745 -0.21872835 -0.20122261 -0.18068421
-0.082841486 -0.10941771 -0.15953517 0.105675906 0.122051716 0.4207482 0.20216212 0.16990358
0.1745781 0.33179078 -0.28892934 -0.02045554 0.37252405 0.3094373 0.3538756 0.19438073
-0.22879562 0.39887747 -0.29776496 0.072389215 -0.090110205 -0.16673665 -0.07819855 0.19658503
-0.27933705 0.20745346 -0.23494956 0.024977148 0.2736167 0.34984168 0.40587255 -0.051112354
-0.18558338 0.058289766 0.2045611 -0.31678447 0.049395062 -0.32652202 0.32761672 0.23733306
0.09907892 -0.4631067 -0.2965703 -0.11775604 0.3589954 0.08920005 0.0491593 -0.36326274
-0.22345594 -0.37428045 -0.2757867 0.19391856 0.24591932 -0.40899143 -0.1729528 -0.20201582
0.34591004 -0.26620978 -0.38365012 0.1682541 -0.19734326 -0.42989314 0.025873274 -0.015319824
-0.09219858 -0.118567824 0.6714562 0.33064815 -0.13544524 -0.12786967 -0.37551466 0.06823007
-0.10484147 -0.10011934 0.097059876 -0.22964239 0.08236483 0.15246329 -0.06949374 -0.0801065
-0.28541458 0.07893661 -0.41454086 0.3285149 0.10642713 -0.04455306 0.14781573 0.33283934
0.04988855 -0.36772516 -0.0688338 0.08808425 -0.04251641 0.19877592 0.44885108 -0.2460836
0.19679478 -0.04712993 -0.9175616 -0.13244614 -0.95938605 -1.3050532 -0.070584625 0.49437886
-0.08236349 0.23983856 -0.2030861 -0.21146305 -0.13114688 -0.26713008 0.14733359 -0.09847763
0.23531452 -0.08479744 -0.14306496 -0.4266529 0.44130725 -0.23960622 0.14776978 0.21904302
0.30233243 -0.16435818 -0.20448425 -0.080554545 0.23223719 -0.28750694 0.16375546 0.0028212965
00000000: 8221 02be b839 6ebd a6e4 af3e 0027 4c3d
00000010: d052 033f 4764 c63c 70fe 8cbc 8726 bfbe
00000020: 8f9d 86be 3f6a 5f3e 82b5 9abe 40d4 cbbe
00000030: dbe8 b43e 5c8f 88be 73fd 8d3e e1eb d6be
00000040: 30df d9be 4516 8b3e 7034 923e 4026 133d
00000050: 88b9 f0bd 370f abbe 50b2 46bd 235c bbbe
00000060: af35 65be 1ed2 76be da95 533e 5c6b cb3d
00000070: cadf 743e bd49 c3be a2b2 4f3e 8291 6fbe
00000080: 2752 d5be e01b afbc 88a8 6bbd b58a aa3e
00000090: 1ef8 9cbe ed54 dabe e9dc c83e 2b19 c7be
000000a0: 9600 723e e045 413d e035 1d3c 78d2 eebd
000000b0: 359c 3dbe 92ca 223e 452f c63e ff86 943e
000000c0: 9a63 733e 72f9 0f3e 5543 f13c c644 3f3e
000000d0: 3fa3 b9be 681b 643e e5ed b7be dc07 f23e
000000e0: 9fa0 cabe 5377 81be e842 fbbd 2ce6 c03d
000000f0: 2405 6ebe d036 9fbc 8cf2 a7bc bae3 94be
00000100: 6950 c93e 8894 01be ebac c3be bc60 f0bd
00000110: e5ce 923e ebd7 b8bd d90f b53e c349 4c3d
00000120: d86d 5abd 12c1 d93e 1c0c f83d 401f ffbb
00000130: 7c90 1dbe 1858 c3bd 421b dc3e 3f74 ac3e
00000140: 0065 883d 969d 20be 0ea0 dabe ec4c abbd
00000150: 6ff1 823e a848 8dbe 4a74 10be 4258 b6be
00000160: 271f cdbe 23a9 85be b33a 8e3e 041a a03d
00000170: d719 b13e a5bd 963e 90df 85be 0020 d639
00000180: 036e cabe 1061 483d 66f8 383e 5047 abbe
00000190: ad24 1abd 3e1a 863d 57e1 963e 66ee d33c
000001a0: 81a6 d63e 93af 1fbe 330f be3e 10e7 5ebe
000001b0: c5d7 c43e 6062 4a3c cfb7 af3e 0605 343e
000001c0: c64a 163e 3033 603d 4e02 733d e431 ac3d
000001d0: 9b89 043e 66ce cabe 154e 97be af71 953e
000001e0: efa6 8b3e b694 913e b251 58be 3319 803e
000001f0: 7931 d03e 53fa 5fbe 4d0d 4ebe 4805 39be
00000200: cca8 a9bd 6416 e0bd 305d 23be 9c6c d83d
00000210: 40f6 f93d 4f6c d73e 9603 4f3e 34fb 2d3e
00000220: 9ac4 323e 7be0 a93e 8cee 93be 6092 a7bc
00000230: 79bb be3e 916e 9e3e 2f2f b53e be0b 473e
00000240: 6649 6abe ab39 cc3e a674 98be cc40 943d
00000250: b38b b8bd 03bd 2abe 9026 a0bd 964d 493e
00000260: 4405 8fbe ae6e 543e 9e96 70be e09c cc3c
00000270: 7d17 8c3e 731e b33e 87ce cf3e 305b 51bd
00000280: 9209 3ebe 40c1 6e3d 7778 513e 9331 a2be
00000290: 7a52 4a3d e52d a7be 61bd a73e 7007 733e
000002a0: e4e9 ca3d 521c edbe 10d8 97be 142a f1bd
000002b0: 3fce b73e 84ae b63d 435b 493d 93fd b9be
000002c0: a2d1 64be b0a1 bfbe ea33 8dbe 9692 463e
000002d0: 46d2 7b3e 5367 d1be 8a1a 31be 3cdd 4ebe
000002e0: 1f1b b13e a64c 88be ca6d c4be ce4a 2c3e
000002f0: 5a14 4abe f41a dcbe 30f4 d33c 0000 7bbc
00000300: 9cd2 bcbd b0d3 f2bd 8ee4 2b3f b74a a93e
00000310: 28b2 0abe 44f0 02be 7543 c0be 35bc 8b3d
00000320: 20b7 d6bd 5e0b cdbd 54c7 c63d 6027 6bbe
00000330: e4ae a83d 561f 1c3e bc52 8ebd e00e a4bd
00000340: dc21 92be 84a9 a13d b33e d4be 1b33 a83e
00000350: 78f6 d93d 457d 36bd 025d 173e eb69 aa3e
00000360: f057 4c3d 7946 bcbe bcf8 8cbd 8465 b43d
00000370: b025 2ebd ea8b 4b3e cfcf e53e 57fd 7bbe
00000380: 9284 493e 500b 41bd 51e5 6abf f69f 07be
00000390: 539a 75bf fc0b a7bf ac8e 90bd 3a1f fd3e
000003a0: 30ae a8bd 3d98 753e cdf5 4fbe c589 58be
000003b0: 5e4b 06be 46c5 88be 9ede 163e a4ae c9bd
000003c0: 4af6 703e 48aa adbd 9f7f 12be 4072 dabe
000003d0: 06f3 e13e 555b 75be f650 173e d04c 603e
000003e0: 51cb 9a3e 834d 28be 5264 51be c8f9 a4bd
000003f0: 96cf 6d3e 1c34 93be 83af 273e 80e5 383b

arith.constant3 f4 [16]
-0.64332247 -0.0049516805 0.0 -0.07847067 -0.20738545 0.0 -0.111581 -0.07136839
-0.08443291 -0.25968006 -0.02930492 0.0 -0.52088416 -0.25138313 0.2850883 -0.14040613
00000000: c8b0 24bf b541 a2bb 0000 0000 3bb5 a0bd
00000010: da5c 54be 0000 0000 9484 e4bd 9729 92bd
00000020: 29eb acbd c9f4 84be df10 f0bc 0000 0000
00000030: aa58 05bf 4ab5 80be 18f7 913e a0c6 0fbe

sequential_2_1/dense_6_1/Add/ReadVariableOp f4 [16]
0.0 0.0 -1.1605635 0.0 -0.47268027 -0.3560645 0.0 0.07937544
0.0 -0.011430567 0.0 0.0 0.0 0.0 -0.106933884 0.0
00000000: 0000 0000 0000 0000 588d 94bf 0000 0000
00000010: 2603 f2be 164e b6be 0000 0000 978f a23d
00000020: 0000 0000 4647 3bbc 0000 0000 0000 0000
00000030: 0000 0000 0000 0000 2700 dbbd 0000 0000

sequential_2_1/dense_6_1/MatMul f4 [16, 1]
-0.33391064 -0.27867815 0.46495083 -0.21527052 0.33217216 0.20239702 -0.58136404 0.66141987
-0.46131697 0.14213248 -0.48177075 -0.23276499 -0.56776685 -0.12268072 0.56928456 -0.1586991
00000000: 56f6 aabe e7ae 8ebe 090e ee3e e06f 5cbe
00000010: 7812 aa3e 2a41 4f3e 46d4 14bf d052 293f
00000020: bd31 ecbe 2d8b 113e a8aa f6be f259 6ebe
00000030: 2b59 11bf 0840 fbbd a2bc 113f 0482 22be
